best_model1.pt (torch, 5111 bytes, 8 tensors)

weight f4 [5, 14]
00000000: 8432 05be e00d 363e be55 713f 6dc5 79bf
00000010: a84b 1b3f cb4f dbbc 36c5 ebbe 3af3 673f
00000020: 762f 81bf d4be a2bd 428e 7f3f f7aa febd
00000030: 7c92 763e 1632 c43e 979f 773f 1692 d83e
00000040: 9340 3c3c 0b33 9fbe 50de cc3f e6d9 393f
00000050: 0b19 0ebf 9312 a53f b1a7 bd3e dbdf 793f
00000060: 86f0 173f 8625 d93f 9111 5ebe efb5 173f
00000070: 2dc8 74bf 5f39 313f 3586 4e3f 4be8 123f
00000080: ce80 0d40 9f6e dd3f 395e da3f 82fa 0cbf
00000090: f52d 94bd 862c f33e f12d a13f cbcb 54bd
000000a0: 479f 8cbf 92f4 293c 3ac3 7abe 5d09 22bf
000000b0: cf97 ebbe 6819 ccbf 6853 2d3f e525 763f
000000c0: 19db 513f 8e2c 953e 8a7d 95bf 8b1b 1540
000000d0: b590 f13e 70fb a93f fa17 e7bd 4591 0540
000000e0: 9268 223f 0f38 0bbe 841d 8ebe 818d 153e
000000f0: 9644 653f 7da4 7cbf 348b a6bd df03 98bf
00000100: 9e86 853f 8fe6 543f 1d42 2ebf b8ab 98bf
00000110: 0562 3dbe 7f58 523f
-0.13007551 0.1777873 0.9427146 -0.9756687 0.6066232 -0.026771447 -0.46048898 0.9060551
-1.0092609 -0.07946554 0.99826443 -0.12434953 0.24079317 0.38319463 0.9672789 0.42298955
0.011490005 -0.3109363 1.6005344 0.7259811 -0.5550696 1.2896293 0.37042 0.976072
0.59351385 1.6964576 -0.21686389 0.59261984 -0.95617944 0.69228166 0.80673534 0.573857
2.2109866 1.7299384 1.7060004 -0.55069745 -0.07235328 0.47494906 1.2592145 -0.051952165
-1.0986108 0.0103732515 -0.24488536 -0.6329554 -0.46014258 -1.5945253 0.6770539 0.9615157
0.8197494 0.29135555 -1.1678936 2.329806 0.47180715 1.3279858 -0.1128387 2.0869915
0.6344081 -0.13595603 -0.27756894 0.1460476 0.8955778 -0.9868849 -0.0813202 -1.1876181
1.0431707 0.83164304 -0.6806963 -1.1927404 -0.18494423 0.82166284

bias f4 [5]
00000000: 62f5 3abf 7b58 b9bf 476c 87bf a548 b2be
00000010: 3b40 52bf
-0.73030674 -1.4480127 -1.0579919 -0.34821048 -0.8212926

weight f4 [5, 5]
00000000: 88d8 98be 01ee ecbe 8b24 513f 0d9c c3be
00000010: 3bd3 8ebf 8e9a 09bf 1e4c 3dbf a2eb 87be
00000020: d915 7ebd bec2 46bf 1b79 80bf adc8 1bbf
00000030: 2064 42bf 58c5 d93f 1afe 663f 32e2 7d3e
00000040: 3681 04be 89ca 51be 9484 d03f e294 8cbf
00000050: ac51 55bf dabe 61bf b8f5 53bf 0211 ddbe
00000060: c881 8abf
-0.298527 -0.46275333 0.81696385 -0.38204995 -1.1158212 -0.53751457 -0.7394427 -0.2654696
-0.062032554 -0.77640903 -1.0036958 -0.6085308 -0.7593403 1.701335 0.9023148 0.24793318
-0.12939915 -0.20487417 1.629046 -1.0982935 -0.83327746 -0.8818184 -0.8279681 -0.43177038
-1.0820856

bias f4 [5]
00000000: b689 a83d fdd1 67bf 819b ffbe 75a0 003f
00000010: e59f 71bf
0.08229391 -0.9055479 -0.49923328 0.5024484 -0.94384605

weight f4 [5, 5]
00000000: 2127 a73e f531 0abf 46e4 c0be c1fc 4abf
00000010: b8fe b23f bfc7 debe 40e9 983e 12a7 e8bf
00000020: c0ff 96bf 0a90 1040 34c3 fd3f 4569 9fbe
00000030: 0d0d 993f c1b1 58be 5ca5 28bd 8e5c 7dbf
00000040: 3a0e c23f 80e1 41bf 6af5 7fbf 0db5 493e
00000050: ff3b afbe 7a13 6cbf 9b93 9ebe 8adb bcbe
00000060: 1239 68bf
0.3264704 -0.5398248 -0.3767416 -0.7929192 1.3983984 -0.4351177 0.29865456 -1.8175986
-1.1796799 2.2587914 1.9825196 -0.31135002 1.1957108 -0.21161558 -0.041173324 -0.9896935
1.5160592 -0.7573471 -0.9998385 0.19697972 -0.3422546 -0.9221722 -0.3097199 -0.36886245
-0.9071208

bias f4 [5]
00000000: 7b04 eebe fd30 4ebf f7ab debe f6c5 50bf
00000010: e92c 18bf
-0.46487793 -0.805435 -0.43490574 -0.81552064 -0.5944353

weight f4 [4, 5]
00000000: fb4a 81bf f231 36bf 4382 babe dcff 273f
00000010: 2d67 c9bf aad6 783f c7fb a0be fd4f b9be
00000020: 728f 5f3f f430 9c3d c062 bb3e c02d cf3b
00000030: 6bc1 8fbf baaf 4c3e 8034 31bf 5764 2fbe
00000040: 2ac0 b63e 4829 d73f a21e 253f eccf db3d
-1.0101007 -0.7116996 -0.36427507 0.65624785 -1.5734612 0.9720255 -0.3144209 -0.3619384
0.87328255 0.076265246 0.36598778 0.0063225925 -1.1230901 0.1998891 -0.69220734 -0.1712812
0.35693485 1.6809473 0.64499867 0.10733017

bias f4 [4]
00000000: a572 643f 51fd 9e3e 8394 77be 4506 503b
0.89237434 0.3105264 -0.24177746 0.0031742018
